model/testmodel.pkl (torch_old, 248512 bytes, 10 tensors)

conv1.weight f4 [6, 1, 5, 5]
000000 ed 96 1a 3e 62 49 9d bd 58 ee df bd 96 26 26 bd
       0.15096636 -0.07680012 -0.10934132 -0.040564142
000010 d8 c1 b8 be 74 2b 7b 3e af e0 b8 3d e2 ba 3e 3e
       -0.3608539 0.24528295 0.0902723 0.18625978
000020 a5 44 c8 3d 47 97 b8 38 be 8c 57 3e eb b3 65 3e
       0.09778718 8.801981e-05 0.21049783 0.22431915
000030 b7 26 9d 3e 6e 19 2c 3e 26 8d 3f 3e a6 9b 2e 3d
       0.306936 0.16806576 0.18706188 0.042628907
000040 3d cb 10 3e 71 30 25 3e 54 32 c0 3e ab 3f 89 3e
       0.14140029 0.1613176 0.37538397 0.26806387
000050 8d 30 4d be 13 8e 73 be f7 f1 f6 bd 10 88 01 be
       -0.20038052 -0.23784666 -0.1205787 -0.1264956
000060 4e bb 43 bd 3f fa bb 3d 80 eb 80 3e 01 67 4c 3e
       -0.04778605 0.0917859 0.25179672 0.19961168
000070 75 cf 75 be ff 54 86 bd 42 c7 29 3e eb 81 b1 3e
       -0.2400492 -0.065591805 0.16579917 0.34669432
000080 a8 a5 59 3e fb fc 91 be 65 35 dd be dc 36 d1 3c
       0.21254599 -0.2851332 -0.432048 0.025538854
000090 c2 d2 b6 3e 6a b2 d5 3d 45 0b 99 3d 36 e9 51 be
       0.3570767 0.104344204 0.074728526 -0.20499119
0000a0 ea a7 90 3e bf d0 b9 3d 2d 29 ac 3e 43 0b 28 3e
       0.28253108 0.09073018 0.33625165 0.16410546
0000b0 63 30 83 bc f3 2c fb 3d 54 29 09 bc 01 6c 3a 3e
       -0.016014284 0.12264433 -0.00837167 0.18205263
0000c0 51 12 e4 3d 30 ee d5 3d 43 c2 98 be 3f 0e 20 be
       0.11136306 0.10445821 -0.2983571 -0.15630434
0000d0 42 c4 ac 3d ac 89 35 bc a5 71 80 3e 94 e2 51 3e
       0.08435871 -0.011080187 0.25086704 0.20496589
0000e0 94 6c aa 3d a2 e8 cc 3c e4 17 9c 3e 24 9a 6a 3e
       0.08321491 0.025013272 0.30486977 0.22910362
0000f0 5e 0b 9f 3a 45 d0 a6 3e 01 d8 b9 3e 58 78 c5 3e
       0.0012134125 0.32580772 0.3629761 0.38568377
000100 86 bb 9b 3c d3 bf d8 3d 0b 8d 2e 3e 39 6d 3f 3e
       0.019010317 0.105834626 0.17045991 0.18694009
000110 ee 1f 8d bd 63 30 21 be a8 54 28 3e ea 6b ff ba
       -0.06890856 -0.15741114 0.16438544 -0.0019487117
000120 84 10 a7 3d 23 17 a4 bd ee 9b 92 bd 66 f5 c4 3d
       0.08157447 -0.080122255 -0.071586475 0.096171185
000130 2a 9f 4b 3e d3 44 76 3e 50 a7 79 bd be e9 59 3e
       0.19884935 0.24049692 -0.060950577 0.21280572
000140 e3 d7 2d be 37 00 c1 bd 4d 60 1e 3e 14 e3 57 3e
       -0.16976885 -0.09423869 0.15466423 0.21082717
000150 79 58 cc 3e b3 11 53 be b0 66 32 be 95 1e 8e 3e
       0.3991125 -0.2061222 -0.17421985 0.27757707
000160 95 f5 60 3e 79 5c b5 3e 75 2a 3b bd b6 55 21 be
       0.21968682 0.35422114 -0.045694787 -0.15755352
000170 81 9c 04 3e 89 d7 2f 3e f3 26 c3 bd fb 40 41 be
       0.12950327 0.17172064 -0.09528913 -0.18872444
000180 d7 ad c8 3c ae 39 77 3d 5e c2 af bd 6d 87 35 be
       0.024496956 0.060357742 -0.085819945 -0.17727442
000190 ab 3b 58 3e 33 f6 82 3d 1a c6 60 3e 44 f3 1e 3e
       0.21116512 0.06394615 0.2195057 0.15522486
0001a0 ac 7c 12 be 35 98 e0 bd f0 45 ad 3e 32 cf 30 3e
       -0.14305371 -0.10966531 0.3384242 0.17266539
0001b0 64 f0 81 3e 34 96 9a 3d 21 9e 36 3e 8b eb ae 3e
       0.25378716 0.0754818 0.17833759 0.3416408
0001c0 09 83 c3 3e db a5 3e bc 0a bd 91 3d 65 13 7c 3e
       0.3818591 -0.011636223 0.071161345 0.24616773
0001d0 8d 8a 9f 3e 26 e2 90 3e 5b 62 40 bd b7 c3 fe bd
       0.31160393 0.28297538 -0.0469688 -0.124396734
0001e0 31 61 cb bd 2f 96 c4 3d cc c2 93 3e 9e 51 89 bd
       -0.09930647 0.09598958 0.28859556 -0.0670502
0001f0 2d e7 fe 3d c4 c6 28 be f4 8d 77 be ab 82 1e bd
       0.12446437 -0.16482073 -0.24175245 -0.038698833
000200 ff cd 3a 3e df 77 64 3e 4f 60 9c bd cd 17 e2 3d
       0.18242644 0.22311352 -0.07635557 0.11039696
000210 c6 fa 9e 3e 12 e2 99 3e a9 e4 39 3e 37 ea 7f 3e
       0.310507 0.3005529 0.18153633 0.2499169
000220 00 dd 65 3e 55 a5 40 3e aa 35 9a 3b d7 10 0d be
       0.22447586 0.18813069 0.0047061043 -0.13775955
000230 fa e3 65 bd fc d4 ca bb c0 a9 79 bd 3f 4d 4d 3e
       -0.05612562 -0.0061899405 -0.0609529 0.20048998
000240 5d 5d 1a 3e 1c 83 a0 bd cb c2 fb 3c 90 61 a2 3d
       0.15074678 -0.07837507 0.030732533 0.07928765
000250 13 49 4d 3e 65 0e 51 3e
       0.20047407 0.20415647

conv1.bias f4 [6]
000000 d4 cb 36 3c ce 20 ef 3d b3 b0 93 38 ac 29 db 3b
       0.011156995 0.11676179 7.042419e-05 0.0066883173
000010 bd 23 ab bd 37 11 37 bb
       -0.08356426 -0.0027933845

conv2.weight f4 [16, 6, 5, 5]
000000 a5 99 0b be 52 96 a6 bd ca 14 2d 3d fb 90 3e bd
       -0.1363283 -0.0813414 0.042256154 -0.046524983
000010 57 bf 52 bd 11 1f f9 bd 90 b1 42 bc 56 37 0b 3d
       -0.051452007 -0.121641286 -0.0118831545 0.03398832
000020 c8 c8 74 bd 0f 23 0b bc 10 04 17 be 92 56 40 bc
       -0.059761792 -0.008492245 -0.14747643 -0.01173939
000030 7b 8c 94 bc 6e ba 96 3b 08 01 42 bd c0 4c d4 bd
       -0.018133393 0.004599861 -0.047364265 -0.103662014
000040 46 27 31 3c d3 66 ad 3d 38 e5 0e 3e 1b d3 7c 3d
       0.010812586 0.08466878 0.13954628 0.061724763
000050 24 0e 84 bd 41 e8 c8 3b 6f ac 8a 3b 85 0d e6 3d
       -0.064480096 0.0061312024 0.0042319815 0.112330474
000060 05 63 11 bd 51 22 c6 bd ff cc 56 be 2a d4 f5 bc
       -0.035494823 -0.09674514 -0.20976637 -0.030008394
000070 a3 7d 82 3a aa 45 bd 3d 40 e1 65 be 66 f7 6c be
       0.0009955656 0.09241803 -0.22449207 -0.2314125
000080 e3 59 5d 3d 40 69 38 3d 4f c9 6a 3c 00 19 66 be
       0.0540408 0.04502225 0.014330222 -0.22470474
000090 a0 82 1a be 94 a2 f2 3d 43 46 2c 3e 76 9d fe bd
       -0.15088892 0.118474156 0.16823678 -0.12432377
0000a0 5a 6d 0b be 58 3c f3 3c bc 2f 47 3e 35 dd 25 3c
       -0.13615933 0.02969186 0.19451803 0.010123541
0000b0 e4 b1 8a bd eb 30 40 be eb 76 8e 3d f9 7b 35 3d
       -0.06772211 -0.1876866 0.069562756 0.044307683
0000c0 45 d8 92 3d 68 83 18 bd 20 7e da bd ed a7 8a bd
       0.071701564 -0.037234694 -0.10668588 -0.067703106
0000d0 cd a2 72 3d a4 e6 d9 3d 86 ff 98 bb a1 1c 17 be
       0.05923729 0.10639694 -0.0046691326 -0.14757015
0000e0 99 8c 95 bd 23 d4 29 3e 37 c4 fa 3d 76 a5 16 bd
       -0.073022075 0.1658483 0.12244456 -0.03677889
0000f0 10 b2 2e bd ba 9f d6 3c 6e ec 9a 3d e7 64 2b 3d
       -0.042650282 0.02619921 0.07564627 0.041844275
000100 ef c7 2c be 2b 28 02 3d 3a c0 5b 3c c3 2e 55 bc
       -0.16873144 0.03177659 0.01341253 -0.013011637
000110 96 e7 83 bd 4e ea d8 bd 7b 92 0f bd 5e 71 ae 3d
       -0.06440656 -0.10591565 -0.035051804 0.08517717
000120 50 12 13 3d 27 4d b6 bc 0c 82 63 bd b9 a4 2a be
       0.035906136 -0.022253586 -0.055543944 -0.16664399
000130 4e 9b 36 3d b7 3b 9e 3d c6 fc 71 3b 5c a8 84 bd
       0.044581704 0.077262335 0.0036924346 -0.064774245
000140 c8 64 75 be 9c 79 e6 3d d3 56 23 3e 5c 9d 18 be
       -0.23964226 0.11253664 0.1595109 -0.14903778
000150 71 c7 36 be 4f 8b 87 bd 45 dc 1b 3e e6 ea 95 3d
       -0.17849518 -0.06618368 0.15220745 0.07320194
000160 80 3e 60 be ba 50 12 bd c8 65 80 bd 5c b2 43 3d
       -0.21898842 -0.035721518 -0.06269413 0.04777752
000170 e1 d2 6a bc 07 f2 ea bc 81 a7 6c 3d 36 68 aa bc
       -0.014332504 -0.02867986 0.05777693 -0.020801645
000180 a9 31 4a 3d d0 0f 0c 3d fa b9 cb bc b2 bf 42 bd
       0.049363766 0.034194767 -0.024868954 -0.047546096
000190 c8 a8 1b bd 04 df 32 bd 16 cd 09 3d 04 87 85 3d
       -0.03800276 -0.043669716 0.03364285 0.06519893
0001a0 39 83 a3 3d f3 f0 a7 bd 95 ed bd bd 72 d8 3f 3e
       0.07984013 -0.08200254 -0.09273831 0.18734911
0001b0 73 cf dc 3d 85 ea f2 bd 80 5c d9 bd f3 c7 d6 bc
       0.10781755 -0.11861137 -0.10613346 -0.02621839
0001c0 12 22 56 3e 92 69 69 3c 89 68 ba bd 66 10 a7 bd
       0.20911434 0.014246361 -0.0910197 -0.08157425
0001d0 5c df 9a 3d 47 f2 37 3e a1 5c 5f bc 3d 4b e4 bd
       0.07562134 0.17963515 -0.013632924 -0.11147163
0001e0 d8 b6 1a be 32 00 de 3c 7e 54 b5 3c a9 b3 97 ba
       -0.15108812 0.027099703 0.022135016 -0.0011573929
0001f0 ac 53 76 bd b2 86 91 bd 13 85 c2 3d 25 35 a0 3d
       -0.06013839 -0.07105769 0.09498038 0.078226365
000200 ad 8e a2 bc 07 b2 aa bd 6f 34 26 be c2 9a 03 3e
       -0.019843424 -0.08334737 -0.1623094 0.12852004
000210 51 74 6a 3d 19 64 a0 3c 28 c1 a0 bd 76 0d bb bd
       0.057239834 0.01957898 -0.07849342 -0.09133427
000220 8b 92 1b 3e a5 67 16 3e 5c cd 82 bd 5b 8a 03 be
       0.1519262 0.14687975 -0.063868254 -0.12845747
000230 9b 0e 1c bd 7d 36 d0 3d d8 c3 19 bb a4 49 2a be
       -0.038099866 0.10166643 -0.002346268 -0.16629654
000240 73 f2 3e bd 07 b8 07 bd af e4 90 3d 2c 23 1f bd
       -0.046617936 -0.033134487 0.07074868 -0.038851902
000250 b2 08 c5 bd 93 3d 52 bd 4e e4 d7 bd 90 40 b3 3d
       -0.09620799 -0.051328253 -0.105415925 0.08752549
000260 5c c3 12 3d 73 24 42 3d a0 fd 91 bd b2 e6 56 bd
       0.03583084 0.047398042 -0.07128453 -0.052466102
000270 5a d3 e5 bc ef b4 2d 3d e6 da ba 3d da 19 fa bd
       -0.028054882 0.04240888 0.09123783 -0.12211962
000280 98 e9 59 bd d5 24 4b 3d e2 bd 99 3d 70 b9 89 3d
       -0.053201288 0.049595673 0.075069204 0.067248225
000290 4b e8 a7 bb b8 f2 4e bd 1d 71 7b bd 6a 3a 24 bd
       -0.005124127 -0.050524443 -0.06138717 -0.04009477
0002a0 7a e4 3c 3d ca 51 12 3b 80 e0 32 bd ce 92 d0 3c
       0.04611633 0.0022326582 -0.04367113 0.025460627
0002b0 5e a8 3f bd 8e 43 49 bc 95 43 74 3d fd fd 14 bd
       -0.046791427 -0.012284173 0.059634764 -0.036375035
0002c0 d1 d4 66 3d 7b 08 25 bd d4 20 33 3c c6 f0 26 bd
       0.0563553 -0.04029129 0.01093312 -0.040756963
0002d0 3c a5 96 bd 17 a9 0a bd 5e 50 8c 3d 89 44 65 3d
       -0.07355735 -0.033852663 0.06851266 0.055973563
0002e0 b8 b3 6f bd ea 1b 82 bd b7 b5 ba bd f4 59 b7 3d
       -0.058521003 -0.063529804 -0.091166906 0.08952704
0002f0 d1 72 69 3c 9e f9 9c ba 0e 37 20 bd f2 2e be bd
       0.014248566 -0.0011976247 -0.039115004 -0.09286298
000300 22 98 d3 bd c5 e0 2a bd b9 86 a6 3d ce 16 39 bc
       -0.103317514 -0.041718263 0.08131165 -0.011296941
000310 dd a0 c7 bd c9 99 30 bd 83 03 aa 3d c5 02 ac 3d
       -0.09747479 -0.04311541 0.08301451 0.08398966
000320 87 8b 44 3d 15 4a 90 3c 07 8c 80 3d f4 4b b3 bc
       0.047984626 0.01761345 0.06276708 -0.021886803
000330 65 b0 04 be c5 c0 69 bd c0 06 a3 3d cb 7e 6f 3c
       -0.12957914 -0.057068605 0.07960272 0.014617632
000340 10 a3 e6 bb a0 f0 81 bd 87 0f 44 bd 70 2f f1 bc
       -0.0070384815 -0.06344724 -0.04786637 -0.029441565
000350 ab 1c 8c bb c6 6e 26 bd c0 0c 2c bd 96 31 a6 bc
       -0.0042758784 -0.040632986 -0.042004347 -0.020287316
000360 eb 7b 31 bd 84 39 8d bc a7 7c c6 3d 2a f6 a3 3d
       -0.043331068 -0.01723934 0.09691744 0.080059364
000370 b8 0d 85 bd 3b a5 fc 3d 25 e3 f3 3d f3 4a 85 3d
       -0.06496757 0.12336203 0.11908559 0.06508436
000380 27 df 38 bd 9b ec c2 bd a9 70 26 3d 25 71 81 bd
       -0.04513469 -0.09517785 0.040634785 -0.06320409
000390 bb ef 06 be bb 1a 21 bd 33 c2 7c 3d 45 a8 7b 3d
       -0.13177387 -0.039332133 0.06170864 0.06143977
0003a0 2a 59 79 3c 14 49 d5 bd 21 39 67 bc 87 3f 84 3d
       0.015219012 -0.10414329 -0.014112742 0.064574294
0003b0 7a 7f a3 3c a1 71 ba bc 32 48 fa 3d 9d d7 9c 3d
       0.019958246 -0.02275926 0.122208014 0.076583125
0003c0 44 63 ca 37 e2 d5 51 bc 56 4f 07 3e 05 cf 0f 3e
       2.41265e-05 -0.012807341 0.13213858 0.14043815
0003d0 77 fe 01 bd a3 da 74 3d a6 d9 2c 3d 3a da a3 bc
       -0.031736817 0.05977882 0.042199753 -0.02000152
0003e0 9e d8 c7 bc 3f 33 19 be 75 7a cd bd 27 a5 8b bd
       -0.024395283 -0.14960955 -0.100331225 -0.0681861
0003f0 fe 18 a2 3d 3e 6c 21 bc 16 69 a9 bd 22 73 db 3c
       0.07914923 -0.009852467 -0.08271997 0.026788298

conv2.bias f4 [16]
000000 a6 1f b2 bd 7b 0b ac bd 28 6c 43 bd 87 64 c7 3c
       -0.08697443 -0.08400627 -0.047710568 0.024339927
000010 96 cf a9 3c ae 3e 15 bc 26 86 c5 3c b7 bf 9c bd
       0.020728868 -0.009109182 0.024111819 -0.07653754
000020 4e 69 12 bd db a6 98 bd 2c ef 87 bd d7 f7 6d bd
       -0.035744958 -0.074537 -0.06637415 -0.058097687
000030 ea 11 c6 3c 1c 28 a2 bd 70 84 20 3d c7 8a e3 3d
       0.024178464 -0.079178065 0.039188802 0.11110454

fc1.weight f4 [120, 400]
000000 ea 5e c0 3d 30 da e8 3d 3a 74 17 3e b2 5f 33 3c
       0.093931034 0.11369741 0.1479043 0.0109481085
000010 fc c9 2d 3d 79 db d0 3d 93 cf 43 bb ce 84 a6 3d
       0.042428955 0.10198111 -0.0029878363 0.08130799
000020 a4 8f 44 bb 41 ea fa 3c 11 c0 2d 3d c4 e6 7e bd
       -0.0029992843 0.03062928 0.042419497 -0.062231794
000030 5a f8 74 3d 82 ae 72 bd 92 c8 b6 bc 78 bb 6f 3d
       0.05980716 -0.059248455 -0.022312436 0.058528394
000040 82 c8 08 3e 0e 66 08 3d f5 83 11 be b3 40 52 bd
       0.13357738 0.033300452 -0.14210494 -0.051331233
000050 5c 70 02 3e a2 d3 9c 3c 78 d0 9d bd 17 ce 92 bd
       0.12738174 0.019143883 -0.07705778 -0.07168215
000060 4a bb d9 3c 4a 34 13 3d 95 56 87 3b d8 84 09 bc
       0.026578564 0.03593854 0.0041301944 -0.008393489
000070 1c 16 ac 3c f0 86 12 3d 8b c4 0f 3c 61 9a 42 3d
       0.021006636 0.035773218 0.008774887 0.04751051
000080 dc 04 1a 3d e8 4d 35 bc 20 36 31 3d 26 45 ae 3d
       0.03760229 -0.011065938 0.04326451 0.08509283
000090 d8 70 63 3d 8f 34 29 bd d9 75 0d bc 6a c4 89 3d
       0.055527538 -0.04130989 -0.008634054 0.06726916
0000a0 78 12 e2 3c 98 e3 1a 3d 9c e9 d7 bc f6 0d ca 3c
       0.027596697 0.037814707 -0.02635651 0.02466486
0000b0 9d 46 8d 3d f9 c2 80 bd c9 dd 96 3c 39 cb 6a 3d
       0.06898234 -0.06287188 0.018416302 0.057322714
0000c0 8d 13 93 3b 37 0a 68 bb 90 db 74 3d 00 b8 81 3c
       0.0044884146 -0.003540648 0.059779704 0.015834808
0000d0 aa 21 7c bc 88 0f d3 3c 7e 87 96 3c 79 80 40 bb
       -0.0153888855 0.025764242 0.018375155 -0.002937345
0000e0 d9 70 6b 3d aa da 35 bc 60 03 04 bb 63 01 3b 3d
       0.057480667 -0.011099497 -0.0020143613 0.04565562
0000f0 08 81 cc 3c e7 2f 78 3d 84 ba 0a 3c 79 50 93 bd
       0.02496387 0.06059256 0.00846732 -0.07193083
000100 7b 1a fa 3c ed 0f 4c 3d c8 d3 21 3d 28 82 d5 3c
       0.030530205 0.049819876 0.03950861 0.02606304
000110 2a ec 8f bc 13 d6 b1 3c ea 8d 30 ba 7e 44 1a 3d
       -0.017568666 0.021708524 -0.0006735014 0.037662975
000120 5b af 75 3d e7 b8 3f bd d2 cb ac 39 75 71 c2 3c
       0.059981685 -0.046807196 0.00032958254 0.023735741
000130 22 66 91 bb 0d 88 f0 bb 62 62 03 3d 20 03 39 3c
       -0.004437224 -0.0073404373 0.032076247 0.011292249
000140 e2 eb 29 bd 5d 21 5b bc 9d d0 46 3c c7 89 23 3d
       -0.04148472 -0.013374654 0.012134698 0.039926317
000150 f1 2d 45 bc 0a 83 99 bd 88 2b a3 3d 56 4a 9a 3c
       -0.012034879 -0.07495697 0.07967287 0.018834274
000160 d4 b2 87 3d 30 14 85 bb d0 eb 2a 3d ea f9 80 bb
       0.06625906 -0.0040612444 0.041728795 -0.003936042
000170 92 40 89 3b bc 97 a3 3c 18 f4 f6 bc c5 7d 8e bd
       0.0041886056 0.019969814 -0.03014569 -0.069575824
000180 a5 14 d9 ba e6 91 1f 3b 58 89 11 3d be a3 3a 3d
       -0.0016561939 0.0024348437 0.03553137 0.045566313
000190 ba 12 02 be c6 46 53 bc 1b 20 91 3d 3d 97 d9 3c
       -0.12702456 -0.012895292 0.07086202 0.026561374
0001a0 48 0b c9 3d 30 3d 56 bd 1f b3 a1 bd 9d e9 fe 3c
       0.09816605 -0.052304447 -0.07895493 0.031117255
0001b0 7d 7c 51 3d 66 30 d9 3d b6 ca a0 3c ce a5 89 bd
       0.051144112 0.106049344 0.01962791 -0.06721078
0001c0 db 93 54 3d 8a 36 93 3c f8 1a 84 3d dc c9 ab bd
       0.05189882 0.017970342 0.064504564 -0.08388111
0001d0 c9 39 f8 3d 9d 3b 9f 3c fc 04 54 bd 4d 54 8b bd
       0.12120397 0.019437606 -0.051762566 -0.068031885
0001e0 6b 01 a9 3c d6 38 c4 bd d3 d5 88 3c e8 a6 04 3d
       0.020630559 -0.09581153 0.016703522 0.032385737
0001f0 53 bb 87 3d 9e eb be bc 17 16 a9 bd 8a 57 d6 bc
       0.06627526 -0.02330571 -0.082561664 -0.026164789
000200 e9 f2 51 3c 82 57 8d 3c d4 dc 33 3b 98 53 7e bd
       0.012814262 0.017253641 0.0027444856 -0.06209144
000210 aa 9f 35 bc 8a 20 ad 3d 6c cf 08 3d c6 05 c1 3c
       -0.01108543 0.08453472 0.033400938 0.023562323
000220 6a a8 14 bc b2 92 e3 bc 65 75 37 3d ae 6f c2 3b
       -0.009073356 -0.02777991 0.04478969 0.0059337234
000230 98 ca 97 bd 3d fb 08 be 43 b7 49 bc 85 87 2f bd
       -0.074116886 -0.1337709 -0.012311759 -0.04285385
000240 88 6d 44 bd 70 c8 33 3c aa f7 e8 bc 93 29 23 3d
       -0.04795602 0.010973081 -0.028438408 0.03983457
000250 e3 3c be 3b 44 2c 02 3d d7 80 0b bd 75 d1 9c bb
       0.005805598 0.031780496 -0.034058418 -0.0047857114
000260 3e af 0b be c2 35 ee bc a5 63 43 3d f5 09 8a bb
       -0.13641068 -0.029078368 0.04770245 -0.0042126128
000270 05 92 a8 bb 10 40 6f bd 28 3f 92 3d 74 75 17 3d
       -0.00514436 -0.058410704 0.07140952 0.036977246
000280 f4 c6 b2 bb db fc 63 3d 26 b6 49 bd 12 28 1b bc
       -0.005455846 0.055661064 -0.049245976 -0.009470003
000290 67 bf 8d 3d d6 b3 c7 3c e1 54 8a bd 40 29 af bd
       0.06921273 0.024377745 -0.067544706 -0.0855279
0002a0 6d c3 2c bc 28 8b 25 3d e1 45 3f 3d 6d ff ff 3c
       -0.01054464 0.040415913 0.0466975 0.031249726
0002b0 ab 41 67 bd cf e6 e6 bc 10 c8 d9 bc 13 ba 15 3d
       -0.05645911 -0.02818623 -0.026584655 0.036554407
0002c0 3f e8 ac 3d 81 ca 3b 3e a2 30 2e 3e d9 23 1b 3d
       0.08442735 0.18338968 0.1701074 0.037875984
0002d0 41 d3 c6 bd 8a 8f 06 bd 03 81 64 bc d5 a7 ab bc
       -0.09708262 -0.032851733 -0.013946774 -0.020954052
0002e0 4f 4d d7 bb 6b 30 a3 3b f9 a2 b2 3d 1e 17 8f bd
       -0.006570495 0.004980137 0.08722491 -0.06986831
0002f0 01 fd 9e bc b2 ff a6 bd 25 66 a9 3d 17 95 8d 3b
       -0.019407751 -0.08154239 0.08271436 0.0043207514
000300 73 63 4d 3d b6 a5 b4 bd 8f 8a 98 bd 6e 7d c0 bc
       0.05014367 -0.08820669 -0.07448303 -0.02349731
000310 ea ed 0c 3d 00 f1 b1 bc 6b 1d ef 3c 7c 49 48 3c
       0.03440658 -0.021721363 0.029188832 0.012224551
000320 2e df 22 bd 48 6e ea bb 0a d4 9d bd 48 17 29 3d
       -0.039763622 -0.00715426 -0.07706459 0.04128197
000330 49 34 e4 bb 23 ea d3 3c 01 9f 92 3c 9f 47 ab 3a
       -0.0069642407 0.025868481 0.017898085 0.0013067609
000340 b0 ba 12 3c c3 a3 ac 3d af 89 33 3d 51 35 bd 3c
       0.008955643 0.084296726 0.043832477 0.023096712
000350 90 48 3d 3d c5 16 5d 3b d4 c0 c8 3b fe 85 f0 bd
       0.04621178 0.0033735496 0.0061265025 -0.11744307
000360 1d b5 39 bd ba 9f 11 bd dc c5 e2 3c a7 9f 6e bd
       -0.04533874 -0.035552718 0.027682237 -0.058257725
000370 4d b8 cf bd 41 7b 90 3d 6d 80 e2 3b 14 d2 3d bc
       -0.101425745 0.07054759 0.006912282 -0.011585731
000380 3c 11 8d bc b2 f3 cf 3c 1a f1 f7 bc 92 e3 fe bc
       -0.017220132 0.025384758 -0.030266333 -0.031114373
000390 d3 b5 36 3d 41 bc 7f 3d 40 7f bb bc e4 81 36 bd
       0.044606995 0.062435392 -0.022887826 -0.044557467
0003a0 31 97 8c 3d 09 9a e9 3c 73 1e ea 3c d3 a0 44 3d
       0.06864775 0.028515832 0.028578972 0.048004936
0003b0 75 6d 87 3c d2 22 da 3c 6d 48 0e 3d 38 1f 79 bd
       0.016531685 0.026627932 0.03473704 -0.06082079
0003c0 db d3 11 be 58 b8 20 bd 9f ba 25 3d ff 9a 3e bd
       -0.14240973 -0.039238304 0.04046118 -0.046534535
0003d0 49 01 e4 3b a9 58 e6 bd c8 4c a9 3d 6c f6 5f 3d
       0.006958161 -0.11247379 0.08266598 0.054678366
0003e0 17 b2 19 3d 8e 42 11 bc f9 b3 5b 3d db 7a 3b 3d
       0.037523355 -0.0088659655 0.053638432 0.04577146
0003f0 1d 12 61 3d f9 44 cf bc 8a 3a ae 3d a1 12 12 3c
       0.054948915 -0.025301443 0.08507259 0.008915574

fc1.bias f4 [120]
000000 18 50 31 3d d8 a6 7e 3d 5d 9f 24 3c 02 66 03 3d
       0.043289274 0.062170833 0.010047761 0.032079704
000010 b2 89 96 3d 91 be be bc 11 f0 32 3d 84 48 36 bc
       0.07350482 -0.023284229 0.043685976 -0.0111256875
000020 54 0c 97 ba c9 0e 0f 3c 28 7b c8 3c 59 2c 0b bd
       -0.001152406 0.008731552 0.024472788 -0.03397784
000030 05 6a 7d bc 78 44 89 bd e9 7b 16 bd 99 6a af bc
       -0.015467172 -0.067025125 -0.036739264 -0.021413134
000040 6a 6f 57 3d 2a 81 70 3b 19 9b 1d bd 64 f3 3d bc
       0.052596487 0.0036698082 -0.03847799 -0.011593673
000050 1a f7 77 bc 8b 71 60 3d 9e 2a e3 3c 5f 6d af 3b
       -0.015134597 0.054795783 0.027730282 0.005353614
000060 8f de 7c 3d a4 f3 b3 bc ec 5d 3b bc cb e9 3c 3d
       0.061735686 -0.021966763 -0.011435967 0.0461214
000070 3a 6e ff bc 03 c5 be 3c 37 cc b4 3b ad 54 c2 3c
       -0.03118049 0.023287302 0.0055175084 0.023722017
000080 b4 46 83 bd dc 0e 0c 3d c8 c3 fc bc bb f1 fe bc
       -0.0640997 0.03419386 -0.030855075 -0.031121125
000090 85 42 53 3d fc bc b1 bc 60 e6 5f 3c 82 0b e3 bb
       0.05157711 -0.02169656 0.0136657655 -0.006928862
0000a0 10 be 39 bd 6f 1d 8b 3c f5 88 31 bd 5c 0c f4 bc
       -0.045347273 0.016981808 -0.043343503 -0.02979105
0000b0 ba d1 48 bd ce 5d be 3b 89 8f bc 3c 45 92 16 3c
       -0.049028136 0.0058095222 0.023017662 0.009190147
0000c0 6e e6 cf 3c f7 39 e6 bc 25 f7 06 3d 9a b1 91 bc
       0.025378432 -0.028103812 0.03295054 -0.017784882
0000d0 be c2 d2 3c 21 53 3c bd 43 69 0b 3b f6 1b a7 3c
       0.025727626 -0.045977715 0.0021272458 0.020399075
0000e0 10 a9 0f 3d 05 7a bf 3b c2 9c 45 bd 9a 3b 92 3c
       0.03507334 0.0058434033 -0.0482452 0.017850686
0000f0 9c c9 61 3d 6b 8e 87 bb 11 17 b2 bc 15 62 3a bd
       0.05512391 -0.0041368506 -0.021739515 -0.045503695
000100 ed fd 24 3d 18 ef 47 bb de ec 9a bd e7 e2 2c 3d
       0.040281225 -0.0030507501 -0.0756471 0.04220858
000110 c6 90 84 3b 86 3d 4f bd 10 43 91 3d ca ac eb 3a
       0.0040455787 -0.050595783 0.07092869 0.0017980572
000120 f8 c1 1e 3d 07 9d 9f 3c 83 fc 70 3d f8 da 41 bd
       0.0387592 0.019484056 0.058834564 -0.047327965
000130 cf ad be ba 06 2c 0a bd 99 1e b3 bc 3d f4 f2 bc
       -0.0014547649 -0.03373339 -0.021865176 -0.029657478
000140 c3 6e ce 3c b1 96 64 bd ec c1 3b bb 84 59 99 3c
       0.0251993 -0.055807773 -0.0028649522 0.018719442
000150 17 aa 81 3d 46 17 23 bd 14 bf cc 3b 1f 14 50 3d
       0.0633127 -0.039817117 0.006248364 0.05080044
000160 81 21 25 bc 04 d3 95 3c 46 15 30 3d a1 56 89 bc
       -0.010078789 0.018289097 0.042989038 -0.01676494
000170 d8 25 e4 3c 1d 00 ef bc 86 2e 5b bd b7 00 78 bc
       0.027850077 -0.029174859 -0.053511165 -0.015136889
000180 da ac 77 3c b2 3b ad 3c 10 5b 1b bc 35 a1 d5 bc
       0.015116895 0.021146629 -0.00948216 -0.026077846
000190 b6 b6 17 bd ba 50 8d 3d 1e 19 c6 3c 27 46 31 bd
       -0.03703948 0.06900163 0.024181899 -0.043279793
0001a0 f3 8a 11 3d 33 9e 9d bb 1b 70 1f 3d 2f 04 eb 3c
       0.035532903 -0.0048101186 0.03892527 0.028688518
0001b0 30 33 28 bd 2a ad 88 bc 3f 4f 91 3d ef dc c1 bc
       -0.04106444 -0.016684134 0.07095193 -0.02366492
0001c0 ff 7f 5f 3d 52 9a dd 3b fd 0e ef 3c 04 a6 68 bc
       0.054565426 0.006762781 0.029181952 -0.014199737
0001d0 2c e1 12 3d 0d 91 a1 3b 7b 61 69 3d 75 52 7d 3d
       0.035859272 0.0049306215 0.05697773 0.061846215

fc2.weight f4 [84, 120]
000000 5b 66 bb bc 27 ae 9b bd b8 30 e9 3c a2 af e9 bc
       -0.022875955 -0.07601576 0.028465614 -0.028526131
000010 ab 79 a9 bd 70 63 c0 3a 50 f3 bd bd 5c 43 77 bd
       -0.082751594 0.0014678072 -0.09274924 -0.060366973
000020 51 ad b5 bd 10 bc 49 3d af 79 ee 38 87 a3 56 bd
       -0.08870948 0.049251616 0.0001137139 -0.052402046
000030 e3 b3 13 3d d4 a2 b9 bd e0 43 07 3c 8f c8 b6 bd
       0.036060225 -0.0906426 0.008255929 -0.08924972
000040 c6 ff 06 3d 51 e4 a9 bd 3b 4c 4a bd 77 6b e0 3c
       0.03295877 -0.08295501 -0.049389105 0.027394993
000050 26 1f de bd da 39 04 3d 60 d4 c4 3b 6c 8d 75 bd
       -0.10845785 0.032281734 0.0060067624 -0.059949324
000060 b8 3c 2a bd f2 3f 8d bd 1e 3a 68 bc df 3c a7 3c
       -0.041561812 -0.06896962 -0.0141740125 0.020414768
000070 d2 2d 99 bd 79 58 4b 3d 4a ea 84 bd 70 ab 77 3d
       -0.07479443 0.04964492 -0.064899996 0.06046623
000080 f0 dd e5 bb 0b e8 0e bc b5 ed 8d bd 6d 69 97 bc
       -0.0070149824 -0.008722316 -0.06930105 -0.018482888
000090 ee 85 09 bd d7 f5 6a bd 0b 59 91 bd 80 dd 3a 3b
       -0.03357499 -0.057363357 -0.07097062 0.0028513372
0000a0 1e 5d d6 bd b0 79 0e bd de 8d 16 bd 80 84 1a 3b
       -0.104669794 -0.03478402 -0.03675639 0.0023577511
0000b0 91 c0 97 bd 06 6d 8b bd b2 9e de bb 7d 84 d5 bc
       -0.07409776 -0.06807904 -0.0067938203 -0.026064152
0000c0 32 99 f0 3b cc 17 5a bd e3 4e 59 3d 24 47 bb bc
       0.007342481 -0.05324535 0.053053748 -0.02286107
0000d0 5c 2e bd bd 82 54 31 3d d1 0e 22 bd 6c 81 df bb
       -0.09237358 0.043293484 -0.03956491 -0.006820848
0000e0 b9 f3 f1 bd fa e2 99 bd 62 e8 bc 3c 08 73 7c bd
       -0.118140645 -0.075139955 0.023060028 -0.06163314
0000f0 e0 02 ad bd 78 81 ae 3c de 56 98 bd 20 56 55 3d
       -0.08447814 0.02130197 -0.074384436 0.05208409
000100 57 94 64 bd 90 7f 1d 3d 88 6e 52 3c 4b cc 79 3d
       -0.05580553 0.03845173 0.0128437355 0.060985845
000110 a4 ec ce 3b 50 2a ca bb 18 25 63 3d 4d f2 cc bd
       0.006314831 -0.006169595 0.055455297 -0.10007153
000120 3b 7e 7d 3b 76 94 42 3c ae be b8 bd a0 f8 5c bd
       0.0038679976 0.011876216 -0.09020744 -0.053948045
000130 2a dd 84 bd f1 95 3f bd 9b 1a 55 bd db cf 9c bd
       -0.06487496 -0.046773855 -0.052027326 -0.07656833
000140 8a 76 84 3d 20 f1 15 bb 4b c0 98 3d e6 c9 86 bb
       0.06467922 -0.0022879317 0.07458552 -0.0041134236
000150 ee 26 0a bd 60 c3 02 3c e8 c4 99 bd 2a e1 ba bd
       -0.033728532 0.007981151 -0.0750826 -0.09124978
000160 80 37 12 3d a3 49 de bc 80 6d 8e bc 9e f0 41 bd
       0.03569746 -0.027134722 -0.017386198 -0.04734861
000170 7b 3c 4f 3d 33 7d ba bd 53 04 70 bd bd 16 44 bd
       0.050594788 -0.09105911 -0.058597874 -0.047873247
000180 76 d8 03 bd 8c 07 94 3d 68 04 7d 3d 7c 4f 9f bd
       -0.032188855 0.07228002 0.06177178 -0.07778832
000190 5c 40 d7 bc 86 c3 4c 3d af 90 e3 bd d8 1d 1b 3c
       -0.026275806 0.049991153 -0.111115806 0.0094675645
0001a0 d0 18 ae 3b 43 8a 84 3c 44 bf 28 3d 98 6b 74 3d
       0.0053130165 0.01617921 0.04119803 0.059672922
0001b0 68 3c c1 3c ac 3c b0 bd 8a c2 4a bd 8c 9a 81 bc
       0.023588374 -0.08605322 -0.049501933 -0.015820764
0001c0 ce e2 ee bd 31 cd 95 bd ae a6 82 bc 5f 74 11 bd
       -0.11664353 -0.07314528 -0.01594862 -0.03551137
0001d0 03 28 7c bb 02 d2 db 3b c1 1c 13 3d d9 d3 bf bd
       -0.0038475997 0.0067083845 0.035916094 -0.093665786
0001e0 5b 4a 89 3d fe 46 01 3d 88 4e 08 3c cb 34 1d bd
       0.06703635 0.031561844 0.008319505 -0.038380425
0001f0 5d c7 21 bd fc 3c b3 bb 61 73 a2 bc 05 cb af bd
       -0.03949677 -0.0054699164 -0.019830408 -0.08583645
000200 ac 16 24 b8 4c f8 5a bd 3d 6d b0 bd f4 34 5d 3d
       -3.912176e-05 -0.05345945 -0.086145855 0.05400558
000210 49 4d fb bc 43 f7 87 bc 10 d0 4c bc b4 11 4d bd
       -0.0306765 -0.016597396 -0.012500778 -0.05006571
000220 27 41 fb 3c dd 6e 9f bc f0 78 54 bd 85 2e 93 3d
       0.030670715 -0.019462043 -0.051873147 0.07186607
000230 c8 4f 66 3d 60 36 60 3d 46 48 ba bd b4 0d 90 3c
       0.05622843 0.054739356 -0.09095816 0.01758466
000240 3d 62 fb bb c3 f2 88 3d f6 89 78 3c 6f 96 1a 3c
       -0.007671623 0.06686928 0.015169611 0.00943528
000250 3c b0 76 3d 96 21 11 3d 6f 0e c7 bd a7 a8 c6 bd
       0.060226664 0.03543242 -0.0971955 -0.09700137
000260 82 db 41 bd 4f d1 fe bc a3 16 03 3c 50 0c 4a 3d
       -0.04732848 -0.031105665 0.0080010025 0.04932815
000270 b0 c7 c0 bd 62 d3 9f bc e0 9b a6 bd f0 c5 a1 3d
       -0.09413087 -0.019509975 -0.081351995 0.07899082
000280 16 b3 4c 3d a0 69 57 3d 18 40 01 bc b9 66 6d bd
       0.049975477 0.052590966 -0.007888816 -0.057959292
000290 1a b3 6d bd 80 5b 68 ba 3d 92 62 bc 6e c8 29 bc
       -0.058032133 -0.0008863732 -0.013828811 -0.010362728
0002a0 7b 9d 9a 3d e9 65 5c bd e0 5b 6a 3d 40 f1 25 3d
       0.07549568 -0.053808127 0.057216525 0.040513277
0002b0 e1 85 a2 bd 04 82 4d bd b3 50 5b bd 25 fa 6c bc
       -0.079356916 -0.05017282 -0.053543758 -0.014463936
0002c0 f6 de f9 3c c2 ef 1d 3d 57 65 e8 bc fa ff 85 3d
       0.030501824 0.03855873 -0.028368635 0.06542964
0002d0 48 0e fa 3c 28 cc d2 ba ea b3 97 bd 69 df 9a bd
       0.030524388 -0.0016082572 -0.07407363 -0.07562143
0002e0 3c a8 43 3d ec e6 47 3d 67 14 34 bd 32 86 aa bd
       0.047767863 0.04880421 -0.04396477 -0.08326377
0002f0 b6 6b 21 bc 3f 0a ab bd 15 c2 3b 3d 2c 9b 04 3d
       -0.00985234 -0.08351564 0.045839388 0.032374546
000300 fc 67 2b 3c 38 54 a9 bd 5e 7c e4 bc f0 8c 57 bd
       0.0104618035 -0.082680166 -0.027891334 -0.052624643
000310 84 90 e8 3c 08 59 b2 3d d8 3d 30 bc 25 27 1a bd
       0.028389223 0.087083876 -0.010756932 -0.037634987
000320 8d e2 68 3d 6c c2 ad bc 35 c2 6b bd bc 99 b5 bd
       0.05685668 -0.021210872 -0.057558257 -0.08867213
000330 18 71 02 bb c8 ca 93 3d c8 5b 3e 3d 5b c2 9e 3c
       -0.0019903835 0.07216412 0.04647425 0.019379785
000340 54 eb 82 3d 5a cc 9e bd 12 45 9e 3d 88 c1 2e bd
       0.063925415 -0.07753821 0.07728018 -0.042665035
000350 e1 36 cd bd a4 db 2d 3d 08 7f c8 3c 00 4d a4 bc
       -0.10020233 0.042445794 0.024474636 -0.020056248
000360 1e 30 bf bd 00 68 81 3a 63 28 38 bd f9 14 8b bd
       -0.093353495 0.0009872913 -0.04496039 -0.067911096
000370 8e c3 a7 3d 7a f8 f7 3c 22 15 b0 bd ad 28 21 bd
       0.08191596 0.03026985 -0.08597781 -0.039345432
000380 3a b7 75 bd 8f 85 c7 bd a6 72 b3 bd 5e 18 ba 3d
       -0.05998919 -0.09742271 -0.08762102 0.09086679
000390 f0 0a a0 3b e0 ef 99 3d 0d bb 55 3b 92 9a b4 3d
       0.0048841164 0.07516456 0.0032612712 0.088185444
0003a0 2a 3d 92 bd 63 d4 b5 3b de f0 52 bd 4e 2c 05 3d
       -0.07140572 0.005549 -0.05149924 0.032512955
0003b0 9c c2 70 3d 91 d1 74 3d cf 65 85 bd 5d 27 af bc
       0.058779344 0.05977017 -0.06513559 -0.021381075
0003c0 59 d6 1f 3b fa 46 0e 3d 9b 3d f5 bc c2 62 db 3c
       0.0024389236 0.034735657 -0.029936602 0.02678049
0003d0 6b 96 01 be 25 fc 14 bd 48 1f b0 bd d0 a3 1b bb
       -0.12655036 -0.036373276 -0.085997164 -0.0023748763
0003e0 d8 db b7 bd b8 57 f1 3d 0d cc 7e bd c8 84 45 3d
       -0.08977479 0.11784309 -0.062206317 0.048222333
0003f0 2e 6d 72 bd 41 0a 28 bd 12 45 ab 3d b3 bf 87 3d
       -0.059186153 -0.041025404 0.083627835 0.066283606

fc2.bias f4 [84]
000000 b4 bc 15 bd b5 1c c9 bd f7 8d 0d 3d 19 65 4f 3d
       -0.036556914 -0.098199286 0.034559216 0.050633524
000010 7e e8 5c 3c 8f 40 5a 3d e0 cc b0 3d 00 b8 6d 3d
       0.013483165 0.053284224 0.08632827 0.058036804
000020 72 36 54 bc 04 e0 25 3d 6d 8a 2f bd ab c4 aa 3d
       -0.012952434 0.04049684 -0.042856622 0.08338293
000030 0a 1e 88 3d 09 ad 63 bd c5 8e 0b bd 11 c2 3a bd
       0.066463545 -0.05558494 -0.034071703 -0.045595232
000040 69 14 f4 bc 6a a4 44 bd 5c 89 a4 bd 22 5c 94 3c
       -0.029794889 -0.04800836 -0.08034012 0.018110339
000050 62 93 0e 3d 20 a9 88 3d 44 84 11 bd 86 96 4d bd
       0.034808524 0.06672883 -0.03552653 -0.05019238
000060 d1 87 68 3d 9c ac 9d bc 46 5b 12 39 5a bf 73 3d
       0.05677015 -0.019247346 0.00013957647 0.05950866
000070 b1 50 d3 bc a3 78 87 3d a9 a6 2b 3d 1a 1f d1 bc
       -0.025795313 0.066148065 0.041906986 -0.025527526
000080 0e 28 39 3c 9a 60 1f bb e8 ca 16 bd e6 d6 59 bb
       0.011301054 -0.0024319054 -0.0368146 -0.0033239662
000090 84 70 b4 bd 9a 4e 98 bd 10 1c 30 3c 73 dd d6 bd
       -0.08810523 -0.07436867 0.010748878 -0.10491457
0000a0 b3 1c 61 39 cc d5 bd bd 29 d7 3d 3d 9b f9 f4 3c
       0.00021468363 -0.09269294 0.04634777 0.029904177
0000b0 bf c4 4e bd 4d 64 c5 3c 2a 97 3d 3d a5 19 b7 bd
       -0.0504806 0.024095679 0.04628674 -0.08940438
0000c0 8e 83 93 bd d1 56 c4 3c bd 11 03 3d 53 3d 59 3d
       -0.072028264 0.023967179 0.03199934 0.053037
0000d0 68 cc 03 3d 7c fb d2 bd 6e fa a5 bd 00 bf 16 bc
       0.03217736 -0.10301873 -0.08104406 -0.009200811
0000e0 cf 65 23 bd 7c 05 aa bb dc b4 f0 3c 9b 02 68 bd
       -0.039892014 -0.005188642 0.029383115 -0.05664311
0000f0 dd cc 01 3c e5 30 e3 3d d2 e6 cb 3d bf ad bc bc
       0.007922378 0.1109331 0.09956135 -0.023032067
000100 be 9b c9 3d 4e b0 c5 bd c8 67 4d 3d 8d 77 0c 3d
       0.098441586 -0.09652768 0.0501478 0.0342937
000110 10 0f 8a 3d 12 41 be 3d 4c e3 9c bd 0d 44 cc 3d
       0.06741154 0.09289755 -0.07660541 0.09973917
000120 c1 ae 99 3d 02 c3 a9 3d ba 58 17 3d 67 c7 8b bd
       0.07504035 0.08289148 0.03694985 -0.06825142
000130 f4 6c 97 3c 1c 1a 3b 3b 0c d2 92 3d ba 9e e6 3c
       0.01848457 0.0028549498 0.071689695 0.028151859
000140 c9 84 d3 bc ca 4c 04 3a c8 b6 01 bb 61 67 b1 3c
       -0.025820153 0.0005046843 -0.0019792784 0.02165574

fc3.weight f4 [10, 84]
000000 02 25 f0 bd ac 92 d3 bd 7d 97 64 3d 15 55 35 bd
       -0.11725809 -0.1033071 0.055808533 -0.044270594
000010 ea d9 27 3d 73 15 3b bd ba f0 c1 3c 32 4a a3 39
       0.040979303 -0.045674752 0.023674358 0.00031145063
000020 e1 5c 3d be 6b 92 d4 3d 7f 09 92 bd 2b 02 af bd
       -0.18492462 0.103794895 -0.071307175 -0.085453354
000030 ec 8c 42 3d 1d a4 b3 bd ec a5 c8 3d 20 f3 b7 3d
       0.047497675 -0.087715365 0.09797272 0.08981919
000040 82 a4 24 be 30 de d5 bc f8 99 c7 bd d2 84 9e 3d
       -0.1607838 -0.026106924 -0.09746164 0.07740177
000050 84 d8 b3 bd 49 65 05 be e4 cf 71 bd fd 74 59 3d
       -0.087815315 -0.13026918 -0.05903615 0.053090084
000060 07 ad 53 bc e3 32 e9 bd 7f 2e 08 bd c7 72 9f bd
       -0.012919671 -0.11386659 -0.033247467 -0.07785564
000070 81 4b ee 3d a2 5e 25 be 90 0a 89 3c 0b 67 e8 3d
       0.11635495 -0.16149381 0.01672867 0.11347779
000080 29 a7 14 be e6 f7 cf bd ac 36 5c bd 93 6e ea 3c
       -0.14516892 -0.10154705 -0.053763077 0.028617179
000090 eb 0b 88 bd 7d 7c a3 bd 14 b9 44 3c b6 89 0e bc
       -0.06642898 -0.07982729 0.012007017 -0.008699825
0000a0 ee c2 ab bd a2 aa a5 3d f1 74 be bd aa ee a0 bd
       -0.08386789 0.08089186 -0.092996486 -0.078580216
0000b0 2a 7d 10 bd 06 05 fc bd bc 4f b8 3c 88 42 0b 3e
       -0.035275616 -0.12305646 0.022498958 0.13599598
0000c0 dd 05 a6 3d 5f d5 60 3d 33 12 18 be 4e cb 7e 3d
       0.08106587 0.054890987 -0.14850692 0.062205605
0000d0 c5 c2 00 be a8 97 d3 bc 81 2f 48 bd bc 88 ba bd
       -0.12574299 -0.025829151 -0.04887343 -0.09108111
0000e0 58 6f c8 3d 8e 6f b3 3d 03 7f 2a 3d a8 f7 80 3d
       0.09786862 0.08761512 0.041625034 0.06297237
0000f0 82 e7 04 3e ae fc 4f 3d f0 1f 1b bd 2c 6c 9b 3d
       0.12978938 0.050778084 -0.037872255 0.075889915
000100 93 f7 90 bd bd 67 d7 bc 28 d8 00 3d 34 5c fa bc
       -0.07078471 -0.026294583 0.031456143 -0.030561544
000110 12 8b c7 3d 6e d1 91 bd 41 bb fd bd 64 b8 02 3d
       0.097433224 -0.07120024 -0.123892315 0.03191413
000120 54 9a c4 3d b5 8f 09 be 13 96 d2 bd e5 00 04 3d
       0.09599748 -0.13433726 -0.10282531 0.032227416
000130 ea 7f 87 3c 42 f5 86 bb 89 33 2a be 9e 73 f8 bd
       0.016540486 -0.0041185925 -0.16621222 -0.12131427
000140 0d b6 68 bd b9 4b 60 3d 79 d0 19 be 7f 98 64 3d
       -0.056814242 0.054759715 -0.15020932 0.055809494
000150 ab 73 f5 bd fd 4e c9 3c 26 88 09 bd 01 45 a0 bd
       -0.119849525 0.024573797 -0.033577107 -0.078256615
000160 30 ea 7c 3d 82 d3 71 3c 8c 69 a3 3d e3 49 11 3e
       0.061746776 0.0147599 0.07979116 0.14188342
000170 29 fe e5 3c 51 de 56 3d 8f 9c 02 be 89 cd 08 3e
       0.028075295 0.05245811 -0.12755035 0.13359655
000180 3e 9b 0d 3e 8d 6d ab bd ae 48 c4 3d ed 52 19 be
       0.13828751 -0.083705045 0.09584175 -0.1497304
000190 6a 80 ca bd 45 6a d3 3c 44 26 9d 3d 08 63 04 be
       -0.09887774 0.02580751 0.07673314 -0.12928402
0001a0 87 2b e2 bd 58 3f 46 3d 45 e4 b7 3c 2e 1f d5 bc
       -0.110434584 0.048400253 0.022447715 -0.026015844
0001b0 a7 c4 f2 3d 51 f5 83 bc 42 7f 84 3d 90 21 84 bd
       0.11853915 -0.016108187 0.06469585 -0.06451714
0001c0 8a 33 80 3c 12 e9 8e 3d a4 b8 0a be 11 24 b5 3c
       0.015649576 0.069780484 -0.13546997 0.022111924
0001d0 b1 56 92 3d 28 19 05 be 29 3b a8 3c 95 00 96 3d
       0.07145441 -0.12997878 0.020536022 0.0732433
0001e0 5a f9 95 3d 81 60 5e 3d 0c 4b eb 3c 92 cc 5f bd
       0.07322951 0.054291252 0.028722309 -0.054638453
0001f0 6a 2b 10 3d ac 85 83 bd 6f 0c ea 3c 04 d3 94 bd
       0.035197653 -0.0642198 0.028570382 -0.072668105
000200 ca 5b 94 bd fb e2 98 3d d0 ef d9 bd 34 04 65 3d
       -0.0724407 0.07465168 -0.10641444 0.05591221
000210 b6 7e bf 3d 5d f2 3f 3c 2c c7 a2 3d eb f5 16 be
       0.0935034 0.011715499 0.07948145 -0.14742248
000220 7b f4 6a 3d b6 2d a1 3c ff d6 d1 bd 5f 41 ed bb
       0.05736206 0.019675117 -0.102460854 -0.007240459
000230 66 38 0e 3c f5 b1 f4 bd 1d c5 dd bd 21 f4 21 3d
       0.008680439 -0.11948005 -0.10828612 0.03953946
000240 60 f3 c5 bd e1 d4 c6 3d 5c 4e ee bd 53 35 2b be
       -0.09665561 0.09708572 -0.116360396 -0.1671956
000250 99 89 01 3e db 8f 9f 3d c5 95 0d 3e e9 6d 98 3d
       0.12650146 0.0779111 0.13826664 0.07442839
000260 97 7d 04 3e c7 e9 92 3d 9c f7 20 3c d1 bb 49 3d
       0.12938534 0.07173496 0.00982466 0.04925138
000270 df 21 90 b9 39 9f 83 3d ba e1 27 bd 5c 12 be 3d
       -0.00027491056 0.06426854 -0.040986754 0.092808455
000280 03 ea 0e be 54 6a ea bd b3 5e b8 3c 16 94 f0 3d
       -0.13956456 -0.11446062 0.022506094 0.11746995
000290 1a 2e 69 bc 05 1a 49 3d 0c b1 93 bd 3a 93 43 be
       -0.014232183 0.04909708 -0.072115034 -0.19099131
0002a0 8d f9 3a bc 41 bc db bd 72 63 0b 3e fe 35 ef bd
       -0.011412037 -0.10729266 0.13612154 -0.1168022
0002b0 3f 98 c5 3d bf 2c 39 3d 68 ea d8 3d dd f5 7b 3d
       0.09648179 0.04520869 0.105915844 0.06151377
0002c0 f9 64 d4 3d 05 61 d1 3c 5e d9 c3 3d e6 44 9f bc
       0.103708215 0.025558958 0.09562944 -0.019442033
0002d0 de 46 3d bd c2 87 41 3d af 12 2b be b3 64 4e bc
       -0.046210162 0.04724861 -0.16706346 -0.012597251
0002e0 b1 72 c6 3d cc 98 ff 3c 03 83 8a bd ec aa 8d bd
       0.096898444 0.031200789 -0.0676327 -0.069173664
0002f0 84 8e b1 bd 56 51 68 3d 4b 4d b2 3d 5c 7a c9 3d
       -0.08669761 0.056718193 0.08706149 0.09837791
000300 0d 3a 76 bd dc 82 86 3d 27 2e 09 3e e4 63 f3 3d
       -0.060113955 0.06567928 0.13396512 0.11884287
000310 f2 5e df 3c db d6 af 3d e6 49 87 bc a2 a3 70 bc
       0.027266953 0.08585902 -0.01651473 -0.014687451
000320 7e fd 28 be 29 c6 43 be 56 2a a0 bd e0 5b b6 bd
       -0.1650295 -0.19118561 -0.07820575 -0.089042425
000330 ca 7a 03 bd 04 e8 8d bd 1b bc 22 be be 62 f0 3d
       -0.032099523 -0.06929019 -0.15892069 0.117375836
000340 c1 43 d7 bc e4 5e 14 3d f9 d3 0b 3e 8d d9 96 3d
       -0.026277425 0.036223307 0.1365508 0.07365713
000350 e5 68 b2 bd d8 40 ba 3c 78 36 eb bd cd 8a 92 3c
       -0.08711413 0.022735998 -0.114849985 0.017888451
000360 7e 0e 86 3d a8 f0 01 bd da 9c 86 3d 9c c7 ea 3d
       0.06545733 -0.03172365 0.06572886 0.11463854
000370 b7 ac 95 3d 32 54 7f 3c 91 17 ac bd ab 8f 98 3c
       0.07308333 0.015584039 -0.084029324 0.018623194
000380 ce d3 d8 3a 9f 8e 7e 3d c6 92 a1 bd b4 fd 1b bd
       0.0016542615 0.062147733 -0.07889323 -0.038083747
000390 ad de 91 3c f9 b2 a8 ba ee 1e 02 be 43 04 1e be
       0.017806375 -0.0012870721 -0.12707111 -0.15431313
0003a0 40 92 54 bd 62 6b 94 bd e3 d1 02 be 9c 35 dc bd
       -0.051897287 -0.07247044 -0.12775378 -0.10752413
0003b0 2a e7 0f 3e 91 5c 68 bd d5 51 b7 3d 73 48 c0 3d
       0.14053026 -0.056728903 0.08951155 0.093888186
0003c0 04 cc 3a 3d 01 76 14 bd 2b 1c af 3d ca b1 b7 3c
       0.04560472 -0.03624535 0.085502945 0.022423644
0003d0 2d 3e 5a bc c6 60 5b bd 4d 49 04 3d 10 70 c5 3b
       -0.013320488 -0.053559087 0.032296468 0.006025322
0003e0 21 bc 14 be a3 d5 1a bd b5 33 7f 3d 68 7d f8 bd
       -0.1452489 -0.037801396 0.06230517 -0.12133294
0003f0 fb 25 7f 3d 16 40 32 bb 52 eb 37 bd c2 45 c4 bd
       0.06229208 -0.0027198843 -0.044902153 -0.09583618

fc3.bias f4 [10]
000000 fc 66 6b bc ea 76 1d bd 63 0f 56 bb 2e d1 10 3c
       -0.014367815 -0.038443483 -0.003266298 0.008838935
000010 84 3a 0e bd 1b af 54 3b 7f 83 85 3d 59 bc 06 bd
       -0.034723774 0.0032453004 0.065192215 -0.032894466
000020 2d 5b 84 bd d8 38 bb 3d
       -0.06462703 0.091417015
